data.pth (torch, 238591 bytes, 6 tensors)

l1.weight f4 [120, 280]
0	0x3cfdc9c5	0.03098
1	0x3da57576	0.080790445
2	0x3e19f133	0.15033416
3	0xbdb8d1f8	-0.09024423
4	0xbcd76391	-0.026292594
5	0xbdb1b393	-0.08676829
6	0xbe3df2ba	-0.18549624
7	0xbdcca690	-0.09992707
8	0xbd89a6fb	-0.06721302
9	0xbe1d99dd	-0.15390725
10	0x3bc76a13	0.006085643
11	0xbdf3cdd6	-0.119044945
12	0x3bd159ed	0.006388894
13	0x3d9ebdef	0.07751071
14	0xbd84c89b	-0.06483575
15	0x3e71ed49	0.23625673
16	0x3dd55bce	0.10417901
17	0xbd2ae3cf	-0.04172116
18	0xbdfb4c48	-0.12270409
19	0xbdb935a1	-0.09043432
20	0xbdcafa9e	-0.09911083
21	0xbb1ff19e	-0.002440549
22	0xbe26a03d	-0.16272064
23	0x3bbd2d51	0.0057732244
24	0x3e7bb105	0.24579246
25	0xbd333116	-0.043747984
26	0xbc9eeeac	-0.019400917
27	0xbdb29d3e	-0.08721398
28	0x3e1cb234	0.15302354
29	0xbc5b38da	-0.013380254
30	0x3e24ad13	0.16081648
31	0xbe0ec89f	-0.13943718
32	0x3da2f328	0.079565346
33	0xbd36ac77	-0.04459807
34	0x3d75f690	0.060049593
35	0xbcdae316	-0.026719611
36	0x3c9f526b	0.01944848
37	0xbd6da6b0	-0.058020294
38	0xbd7b03fe	-0.061283104
39	0x3ca82d1a	0.020529319
40	0x3e493b9c	0.19651645
41	0xbdc8e019	-0.09808368
42	0xbcd72a10	-0.026265174
43	0x3d2f34fa	0.04277513
44	0x3a6c9179	0.00090243627
45	0xbd2ac330	-0.04169005
46	0xbdd53887	-0.10411172
47	0x3e613c17	0.21995579
48	0xbd9287ab	-0.07154783
49	0x3db3b94c	0.08775577
50	0xbdfbc700	-0.122938156
51	0xbdec12ec	-0.115270466
52	0x3e4a5aae	0.19761154
53	0x3c2c1cb6	0.010504892
54	0x3db5f7b3	0.088851355
55	0xbd881363	-0.06644323
56	0xbc64bdb8	-0.013961248
57	0x3ae68935	0.0017588498
58	0x3a518229	0.00079921127
59	0x3e080825	0.13284357
60	0xbe2b3c6a	-0.16722265
61	0xbd3a2ad2	-0.045450993
62	0xbd0e9bcd	-0.034816552
63	0xbd933a6c	-0.071888775
64	0x3e2ece32	0.17070845
65	0x3bcfaae9	0.0063375128
66	0xbd7a76b0	-0.061148345
67	0xbd0623fd	-0.032749165
68	0x3e22fc9e	0.15916678
69	0xbd52d089	-0.051468406
70	0xbd6f5a5b	-0.05843578
71	0x3d874ee3	0.06606843
72	0xbe0a4100	-0.13501358
73	0x3e48c17f	0.19605063
74	0x3e428e54	0.18999606
75	0x3d866970	0.06563079
76	0x3e4a9411	0.19783045
77	0x3b92b4d6	0.0044771237
78	0xbdf3c79b	-0.11903306
79	0xbdaa0660	-0.08301997
80	0x3c33e1d5	0.0109791355
81	0xbd285221	-0.04109395
82	0x3da3d4ce	0.07999574
83	0x3e06e71a	0.13174096
84	0x3a5a1f43	0.00083206984
85	0xbd51494b	-0.05109529
86	0x3dad7dc2	0.08471252
87	0x3e17ef68	0.1483742
88	0xbb50698e	-0.0031801197
89	0x3d4651d3	0.048417877
90	0xbe2c4ddc	-0.16826576
91	0xbd9fc2af	-0.07800805
92	0xbda8fb28	-0.08251029
93	0xbd6f9608	-0.05849269
94	0x3c5c2f62	0.013439031
95	0x3d8d6ef9	0.06905932
96	0xbdfb36be	-0.122663006
97	0x3e84c232	0.2592941
98	0x3b8ee460	0.0043607205
99	0xbe0c7625	-0.13716944
100	0xbe78dc58	-0.24302804
101	0x3ccab19b	0.024742892
102	0xbdb806ee	-0.08985697
103	0x3cf67887	0.030086769
104	0x3e42a287	0.19007312
105	0xbc891742	-0.016734723
106	0xbb9854a0	-0.00464876
107	0xba9c6f1d	-0.001193497
108	0x3e0af59e	0.13570258
109	0xbdc009a9	-0.093768425
110	0x3d823913	0.06358542
111	0x3d71e369	0.059054766
112	0xbce57990	-0.028012067
113	0x3e3f4dd6	0.18682036
114	0xbd5e94b0	-0.05434102
115	0x3e3a8f53	0.18218736
116	0x3ddec6c8	0.10877758
117	0x3caf1421	0.021371903
118	0xbda49d09	-0.080377646
119	0xbe133293	-0.14374761
120	0xbd806e7e	-0.06271075
121	0xbe0b835a	-0.13624325
122	0xbe29a644	-0.16567332
123	0xbce2a647	-0.027667178
124	0xbd526d7e	-0.05137395
125	0x3dbb63db	0.09149905
126	0x3def2c09	0.11678321
127	0xbdd3f700	-0.10349846
128	0x3d8da430	0.06916082
129	0x3ddf5cbb	0.10906359
130	0x3e22eb17	0.15909992
131	0xbdad3506	-0.08457379
132	0x3e3f2156	0.1866506
133	0xbdc3e0b5	-0.09564344
134	0x3dcba66c	0.09943852
135	0xbe155173	-0.14581852
136	0xbd2bad7a	-0.041913487
137	0xbdb06b92	-0.086142674
138	0x3e2f21ab	0.17102687
139	0xbd0b321c	-0.033983335
140	0x3e2e4b72	0.17020968
141	0xbd944d8a	-0.07241352
142	0xbd4697ba	-0.04848454
143	0xbe0c7254	-0.13715488
144	0x3cb908e2	0.022587243
145	0xbbc6516a	-0.006052186
146	0xbd3d78ea	-0.04625789
147	0x3b65c6cb	0.0035061117
148	0xbc0e5715	-0.008687754
149	0x3e36ee4f	0.17864345
150	0xbd0ea971	-0.03482956
151	0xbd240f86	-0.040053867
152	0xbda15af4	-0.07878676
153	0xbdbb88d4	-0.09156957
154	0xbe451299	-0.19245376
155	0xbda2eb82	-0.07955076
156	0x3e12ed56	0.14348349
157	0x3d09ecac	0.033672974
158	0xbc550546	-0.013001746
159	0xbd88db53	-0.06682458
160	0xbd15a9cd	-0.036538888
161	0x3e28f884	0.16501051
162	0xbde9806f	-0.1140145
163	0x3e2c20b0	0.16809344
164	0x3c2c4866	0.010515308
165	0xbdd5878c	-0.10426244
166	0xbd4eba27	-0.050470497
167	0xbdd37dc4	-0.10326722
168	0xbdc8331b	-0.097753726
169	0x3da26a93	0.07930484
170	0x3e52e371	0.20594575
171	0x3e547755	0.20748647
172	0x3d88b89a	0.06675835
173	0xbd555045	-0.052078504
174	0xbdcdb84f	-0.1004492
175	0xbd24dc59	-0.040249202
176	0xbe1bfc2b	-0.15232913
177	0x3a88d7c7	0.0010440283
178	0xbd8058e3	-0.06266954
179	0xbcb43090	-0.021995813
180	0xbbe18281	-0.0068820124
181	0x3c2e0eff	0.010623693
182	0x3d191ac4	0.03737904
183	0x3bf88074	0.007583672
184	0xbaba088f	-0.0014193224
185	0x3c4e3fd5	0.012588461
186	0xbde7f6c9	-0.113263674
187	0xbd487bc6	-0.048946165
188	0xbe25c7db	-0.1618952
189	0xbc92fea6	-0.017943691
190	0x3cd9170e	0.026500251
191	0x3c517967	0.012785292
192	0xbd8f7468	-0.070046246
193	0xbd34d5b0	-0.0441491
194	0x3e549652	0.20760468
195	0xbddfd840	-0.10929918
196	0x3e18f626	0.14937648
197	0xbe1bfcac	-0.15233105
198	0x3b159168	0.0022822265
199	0x3e141530	0.14461207
200	0xbcb96359	-0.02263038
201	0xbdb89316	-0.090124294
202	0x3e795307	0.24348079
203	0xbd8a71d3	-0.067599915
204	0x3e3f229c	0.18665546
205	0xbc885a85	-0.016644726
206	0xbdeeb7bc	-0.11656138
207	0x3cd43acc	0.025906943
208	0x3d5fdf06	0.05465605
209	0x3d2474c7	0.04015043
210	0xbcd020c2	-0.025406245
211	0xbde9573b	-0.11393591
212	0x3b8c6b32	0.0042852396
213	0x3c73a6d0	0.014871314
214	0xbd82cadd	-0.06386349
215	0xbe1ed9e9	-0.15512814
216	0xbc0ca463	-0.008584115
217	0xbe20b344	-0.15693384
218	0x3dbcb534	0.09214249
219	0xbc52f333	-0.012875366
220	0xbcbee5fc	-0.023303024
221	0xbb5cb541	-0.0033677372
222	0xbd046ac5	-0.032328386
223	0xbdcda8aa	-0.10041936
224	0x3e379e7a	0.17931548
225	0xbdb02dc5	-0.0860248
226	0x3d17d447	0.037067678
227	0xbe34dc93	-0.17662267
228	0xbced1613	-0.02894119
229	0xbd577b79	-0.052607987
230	0x3d8e51c5	0.0694919
231	0xbd0fa3b6	-0.035068236
232	0xbc47a127	-0.012184418
233	0xbd59a269	-0.053133402
234	0xbdc8ef1e	-0.09811233
235	0xbe87d783	-0.2653161
236	0x3dfc26f6	0.12312119
237	0xbe00c347	-0.12574492
238	0x3df8c444	0.1214681
239	0x3d88accf	0.066735856
240	0x3e81e98f	0.25373504
241	0xbddf7b77	-0.10912221
242	0x3d916e0e	0.071010694
243	0xbd83f8f4	-0.064439684
244	0xbd9b1b2d	-0.07573543
245	0x3d23a407	0.03995135
246	0x3d5f256d	0.05447905
247	0x3db6609e	0.08905147
248	0x3da52b11	0.08064855
249	0x3e31a1e6	0.17346916
250	0xbe02a810	-0.12759423
251	0x3d710628	0.05884376
252	0xbde6ff44	-0.11279157
253	0x3e03fe72	0.12890032
254	0xbc25b0e7	-0.010112978
255	0x3dc3fffa	0.09570308

l1.bias f4 [120]
0	0x3e662b05	0.22477348
1	0x3e7b80ee	0.24560902
2	0x3e0c5f55	0.13708241
3	0x3e9708c2	0.2949887
4	0x3e84b344	0.2591802
5	0x3e4dde00	0.20104218
6	0x3e4cd8ff	0.20004652
7	0x3eace1c9	0.3376601
8	0x3eb988c9	0.3623717
9	0x3ea027d8	0.31280398
10	0x3db5c7f3	0.08876028
11	0x3e2bb626	0.16768703
12	0x3e17c090	0.1481955
13	0x3db37284	0.087620765
14	0x3e16e67f	0.14736365
15	0x3da47de6	0.08031826
16	0x3e3406a3	0.17580657
17	0x3e765309	0.24055113
18	0x3e041a7f	0.12900732
19	0x3e398128	0.18115675
20	0x3ede32a5	0.43398014
21	0x3e931af6	0.28731507
22	0x3e9022a7	0.28151438
23	0x3e373a16	0.17893252
24	0x3e256518	0.16151845
25	0x3e084e73	0.13311176
26	0x3e29f1a4	0.16596085
27	0x3e89d2e7	0.26918718
28	0x3e6390b6	0.22223172
29	0x3e519031	0.20465161
30	0x3dd7a6d9	0.105298705
31	0x3e6e2b4a	0.23258701
32	0x3e769c69	0.24083103
33	0x3e85ce63	0.26134023
34	0x3e7a972c	0.2447173
35	0x3e6e6995	0.23282464
36	0x3e34c8c3	0.1765471
37	0x3e386a6d	0.18009348
38	0x3e425bb1	0.1898029
39	0x3e93c527	0.28861353
40	0x3eb7f7de	0.35931295
41	0x3e5c022b	0.21485202
42	0x3e3917ce	0.18075487
43	0x3dbbd5cb	0.09171637
44	0x3ea1d772	0.31609684
45	0x3e8c6efb	0.2742842
46	0x3e8318fc	0.25605
47	0x3e845e0a	0.25852996
48	0x3e29fb7b	0.16599838
49	0x3e1c39ab	0.15256374
50	0x3e844bfc	0.2583922
51	0x3e6d87dc	0.23196357
52	0x3e80f72d	0.2518858
53	0x3eb09dee	0.3449549
54	0x3e65ed03	0.22453694
55	0x3e7790ba	0.24176303
56	0x3e250061	0.16113426
57	0x3e4d51c6	0.20050725
58	0x3e02a6cd	0.12758942
59	0x3e5877de	0.21139476
60	0x3eb8fc41	0.36129954
61	0x3e2b0042	0.16699317
62	0x3e0e77c1	0.1391287
63	0x3e1c1673	0.15242939
64	0x3e36cf9f	0.17852639
65	0x3e655ea1	0.2239938
66	0x3d3b9906	0.04580023
67	0x3dd4009f	0.10351681
68	0x3ec3c00f	0.38232467
69	0x3ea45e54	0.32103217
70	0x3e74669c	0.23867267
71	0x3e08b4ac	0.13350171
72	0x3e0f9d6b	0.14024894
73	0x3e80081f	0.25006196
74	0x3e909cd1	0.2824464
75	0x3e878c47	0.2647421
76	0x3de8d782	0.1136923
77	0x3e2598fe	0.16171643
78	0x3e8d2d89	0.27573803
79	0x3da664e7	0.08124714
80	0x3e951286	0.29115695
81	0x3ea41af3	0.3205181
82	0x3e639398	0.22224271
83	0x3dcd0679	0.10011
84	0x3e6bb756	0.23019156
85	0x3e11fc97	0.14256512
86	0x3ddf727e	0.109105095
87	0x3e869ef5	0.2629315
88	0x3e927e3d	0.28611937
89	0x3e524944	0.20535761
90	0x3e6e580a	0.23275772
91	0x3eadb47a	0.33926755
92	0x3e529a63	0.20566706
93	0x3e51c622	0.20485738
94	0x3e29859b	0.16554873
95	0x3dc1c48c	0.094613165
96	0x3e8d8628	0.27641416
97	0x3e1c29ee	0.1525037
98	0x3ecae67c	0.3962897
99	0x3e6cab82	0.231123
100	0x3e3e57cd	0.18588181
101	0x3e33bd35	0.17552646
102	0x3e75b9c8	0.23996651
103	0x3e4ecbd5	0.20194943
104	0x3e87db50	0.2653451
105	0x3e8a3b02	0.26998144
106	0x3e3612a1	0.17780544
107	0x3eb48eaf	0.3526511
108	0x3e4ed822	0.20199636
109	0x3dd41c90	0.1035701
110	0x3e955c96	0.291722
111	0x3e6053ec	0.21907014
112	0x3e249c1c	0.16075176
113	0x3e6efc37	0.233384
114	0x3e9a3c14	0.3012396
115	0x3ddfbb60	0.10924411
116	0x3e7bf730	0.24606013
117	0x3e0fffbe	0.14062402
118	0x3e96dfc0	0.29467583
119	0x3dcd95ed	0.10038362

l2.weight f4 [120, 120]
0	0x3d8557dc	0.065108985
1	0x3e4452ee	0.1917226
2	0xbdd1d425	-0.102455415
3	0x3d477807	0.04869845
4	0x3e139171	0.1441095
5	0xbd399fbb	-0.045318346
6	0x3e93bd69	0.28855446
7	0x3da2c3dc	0.079475135
8	0x3cc9579d	0.02457791
9	0x3ea50076	0.32226914
10	0x3e9b1e51	0.30296567
11	0x3d7cd5ce	0.061727338
12	0xbd3ea306	-0.04654219
13	0xbcca9015	-0.024726907
14	0x3dae57a6	0.08512811
15	0x3d34217d	0.04397725
16	0x3e23c616	0.15993533
17	0x3e5fa927	0.2184187
18	0xbdca216e	-0.098696575
19	0xbcd3a91c	-0.025837474
20	0xbd152993	-0.0364166
21	0x3dda5706	0.1066113
22	0x3e078a7e	0.13236424
23	0x3e4487c8	0.19192421
24	0x3e940e89	0.2891734
25	0xbea21323	-0.31655225
26	0xbe7b56b2	-0.2454479
27	0x3e9f08a5	0.31061283
28	0x3e852406	0.26004046
29	0xbe8262ae	-0.25465912
30	0x3e05100a	0.129944
31	0x3eacc366	0.33742827
32	0xbdb99e97	-0.09063452
33	0x3e43e687	0.19130908
34	0x3cf97d7d	0.030455345
35	0x3dc46937	0.09590381
36	0xbd8f6e0f	-0.07003414
37	0x3d9b9b4c	0.0759798
38	0x3de40e8d	0.11135588
39	0x3d54b363	0.05192889
40	0xbd055028	-0.032547146
41	0xbdba4050	-0.09094298
42	0x3da99c47	0.08281761
43	0xbda7ace3	-0.081872724
44	0x3eaf3185	0.34217468
45	0x3daf272b	0.085523926
46	0x3e56ffe6	0.20996055
47	0x3ec41318	0.38295817
48	0x3d8af063	0.067841314
49	0xbdddc109	-0.10827834
50	0xbe791a77	-0.24326502
51	0x3e806794	0.25079024
52	0xbe0a98fa	-0.13534918
53	0x3e5d3af4	0.2160452
54	0xbd4c2008	-0.049835235
55	0x3dbbf91d	0.09178374
56	0x3ea683ca	0.32522422
57	0x3bebf98e	0.00720138
58	0x3d399ccb	0.045315545
59	0x3e9fbf96	0.31200856
60	0xbd89d74e	-0.06730519
61	0x3eb8486c	0.35992754
62	0x3e7c0776	0.24612221
63	0xbe2c11e8	-0.16803706
64	0x3e8d45a2	0.27592188
65	0x3eaece6b	0.3414186
66	0x3d3de92e	0.046364956
67	0xbc54917a	-0.012974137
68	0xbcd307c3	-0.025760537
69	0x3d00277b	0.03128765
70	0xbe844324	-0.25832474
71	0xbd942039	-0.072327085
72	0xbccc4710	-0.024936229
73	0xbe980bf9	-0.29696634
74	0xbdc291d3	-0.0950047
75	0x3e07a6e2	0.13247254
76	0xbdcfa75c	-0.10139343
77	0x3eae4bac	0.34042108
78	0x3db401d9	0.08789415
79	0xbe4d0fdf	-0.20025586
80	0xbd668714	-0.056281164
81	0xbe040cd4	-0.12895519
82	0xbd8ecb1a	-0.06972332
83	0x3e93f189	0.28895214
84	0x3e29084e	0.16507074
85	0x3e46b09e	0.19403312
86	0x3d6b120a	0.05739025
87	0x3e999a1d	0.30000392
88	0x3e563e98	0.20922315
89	0x3d77491b	0.060372453
90	0x3dd2ffbd	0.103026845
91	0xbe40fd31	-0.18846585
92	0xbdeff6b9	-0.117169805
93	0x3e4f42eb	0.20240371
94	0x3e242e41	0.1603327
95	0x3e3ce62d	0.1844718
96	0x3e4be960	0.19913244
97	0xbd6d17da	-0.057884075
98	0xbd4ca263	-0.04995955
99	0xbde8f681	-0.11375142
100	0xbe610d61	-0.2197776
101	0xb9b96031	-0.00035357618
102	0x3e22331b	0.15839808
103	0x3e572273	0.21009235
104	0xbc338859	-0.010957801
105	0x3e7b6581	0.2455044
106	0xbe75d335	-0.2400635
107	0xbc566d54	-0.013087589
108	0xbbfd410e	-0.0077287024
109	0xbec8205b	-0.39087185
110	0x3e7dbf20	0.2477994
111	0x3bea6eda	0.007154328
112	0xbd4457e2	-0.047935374
113	0x3e4623b2	0.19349554
114	0xbeb8f239	-0.361223
115	0xbd8424e8	-0.06452352
116	0x3e8d92ef	0.27651164
117	0x3e822331	0.25417474
118	0xbe0223fb	-0.12709038
119	0x3e400e05	0.18755348
120	0x3e83a6b3	0.2571312
121	0x3eb5cda9	0.3550847
122	0xbe1c58fb	-0.15268318
123	0x3e505c62	0.20347741
124	0xbe14c602	-0.14528659
125	0x3d308208	0.043092757
126	0x3e2e03e1	0.16993667
127	0xbda258e9	-0.079271145
128	0x3e9088b2	0.2822929
129	0xbdcd7c5c	-0.10033485
130	0xbd70660b	-0.058691066
131	0x3c91a216	0.017777484
132	0x3e39ec36	0.18156514
133	0x3dfd7c7c	0.12377259
134	0xbe8a0272	-0.2695499
135	0x3df1e7c2	0.118117824
136	0xbe013882	-0.12619212
137	0xbe2bb779	-0.16769208
138	0x3bd1370f	0.0063847373
139	0x3e820a4a	0.25398475
140	0x3e982a86	0.29719943
141	0x3e9064f6	0.28202027
142	0xbec48d3c	-0.38389003
143	0xbd8277a5	-0.06370477
144	0xbe6a4d07	-0.22880946
145	0xbdcc5cb7	-0.099786215
146	0xbd887a79	-0.06663985
147	0x3dc1ecf4	0.09469023
148	0x3e1ead56	0.1549581
149	0xbde8e950	-0.11372626
150	0x3e411a86	0.18857774
151	0x3c38129a	0.011234904
152	0x3db58637	0.0886349
153	0x3dd34207	0.10315328
154	0xbe6921cd	-0.227668
155	0x3d1b1ac5	0.037867326
156	0x3e665807	0.22494517
157	0x3cb72cce	0.022360232
158	0x3eb060e9	0.34448937
159	0xbbf585d1	-0.007492759
160	0x3e92d296	0.2867629
161	0x3dc2db8e	0.09514533
162	0xbc2a5eb9	-0.01039856
163	0xbe0dbb83	-0.13841061
164	0x3e8f0f60	0.27941418
165	0xbdbdb2bc	-0.092626065
166	0xbdf542e0	-0.11975646
167	0x3ea171d1	0.31532148
168	0xbe9f67c1	-0.31133845
169	0x3d9faa70	0.0779618
170	0x3e4a9f9f	0.19787453
171	0x3e897678	0.26848197
172	0x3ed7a4ca	0.42117912
173	0x3d4f8351	0.050662342
174	0x3ca81c40	0.020521283
175	0x3e07c0d5	0.13257153
176	0x3e640301	0.22266771
177	0xbd3eba7e	-0.04656457
178	0x3e1a50bb	0.15069859
179	0xbdc46e15	-0.09591309
180	0x3eacd311	0.3375478
181	0x3e8a15e3	0.26969823
182	0xbdadadc8	-0.08480412
183	0xbe1819d2	-0.148536
184	0xbe368ca7	-0.17827092
185	0x3da4e144	0.080507785
186	0xbe4d034d	-0.2002079
187	0x3dc4146c	0.09574208
188	0x3e3a2b74	0.18180639
189	0x3b590689	0.0033115468
190	0x3d983ed7	0.07433861
191	0xbe0782ed	-0.13233538
192	0xbddcaa05	-0.10774616
193	0xbe10e860	-0.14151144
194	0x3d84138e	0.06449042
195	0x3ec7d6f8	0.39031196
196	0xbe310811	-0.17288233
197	0x3e7e9d15	0.2486461
198	0x3df14530	0.117807746
199	0xbdec64ef	-0.11542689
200	0x3d0c6071	0.03427166
201	0x3eb0ebaf	0.34554812
202	0x3dcb500d	0.09927378
203	0xbe3f30c8	-0.18670952
204	0x3d4f3df7	0.050596204
205	0x3d0f373d	0.03496479
206	0x3ea6bf2e	0.32567734
207	0xbdc0097d	-0.0937681
208	0x3db80e01	0.08987046
209	0xbd4d40bc	-0.050110564
210	0x3e7ef51e	0.24898192
211	0x3edaacdd	0.4271001
212	0x3e43b8c7	0.19113456
213	0x3df4b2cb	0.119481646
214	0xbd20a2bf	-0.039217707
215	0xbdecaa2c	-0.11555895
216	0xbe49d116	-0.19708666
217	0xbda7936b	-0.081824146
218	0x3c507cd3	0.012725073
219	0x3e836f55	0.25670877
220	0xbd58c2cc	-0.052920148
221	0xbe386674	-0.18007833
222	0x3e20e308	0.15711606
223	0x3d286a23	0.041116845
224	0x3eb1f977	0.3476064
225	0xbe05505b	-0.13018934
226	0x3e8e08b6	0.2774102
227	0x3c888382	0.01666427
228	0x3ded52b2	0.115880385
229	0x3d965aff	0.07341575
230	0x3d5e3190	0.054246485
231	0x3ecff46d	0.4061617
232	0xbea95586	-0.33073062
233	0xbe2a8460	-0.1665206
234	0x3dc72b97	0.09725111
235	0xbddc010a	-0.10742386
236	0xbd46e8e2	-0.048561938
237	0x3d1a6490	0.03769356
238	0x3e3e4f24	0.18584877
239	0x3d3d2465	0.046177287
240	0x3e357231	0.17719342
241	0x3d588233	0.052858543
242	0x3ded46ae	0.11585747
243	0x3e9d4602	0.30717474
244	0xbe25b4be	-0.16182229
245	0xbe62cf06	-0.22149286
246	0x3c7783d3	0.015107113
247	0x3eeb58c5	0.45966163
248	0x3e1873f8	0.14887989
249	0x3eb0546e	0.34439415
250	0x3dc4df0b	0.096128546
251	0x3df216e6	0.11820774
252	0xbd059ced	-0.03262036
253	0xbe0e3ac1	-0.138896
254	0xbe2fab99	-0.17155303
255	0xbe2a6adf	-0.1664233

l2.bias f4 [120]
0	0x3d0f7968	0.03502789
1	0x3d90f237	0.07077449
2	0x3d96b9b0	0.07359636
3	0x3df55f74	0.11981097
4	0xbca872d4	-0.020562567
5	0x3d2df0bf	0.04246592
6	0x3dbe9ded	0.09307466
7	0x3d806017	0.06268328
8	0x3e1666ea	0.14687696
9	0x3c5b4b41	0.013384641
10	0x3c6be175	0.014397015
11	0xbcefaf9d	-0.029258544
12	0xbd2a469b	-0.04157124
13	0x3d9666a6	0.073437974
14	0x3c4f9e03	0.01267195
15	0x3e19b802	0.150116
16	0x3e24734c	0.16059607
17	0x3c9c3c00	0.019071579
18	0x3e35658f	0.17714523
19	0xbd8db584	-0.06919387
20	0xbd3c3a9c	-0.04595433
21	0x3df65eee	0.12029825
22	0xbdad1fbe	-0.0845332
23	0xbd5f110c	-0.054459617
24	0x3d945d49	0.07244355
25	0x3d1769f3	0.036966275
26	0x3dfcfb70	0.123526454
27	0x3dccb95b	0.09996291
28	0x3db818cd	0.089891054
29	0x3e1f6619	0.15566291
30	0x3bb0fc34	0.0054011587
31	0x3db45950	0.088060975
32	0x3e1758ac	0.1477992
33	0xbd1c2cf5	-0.038128812
34	0xbbf1f6c0	-0.007384151
35	0x3e137c68	0.14402926
36	0x3e17b990	0.1481688
37	0xbdef602d	-0.11688266
38	0xbcf70d44	-0.030157693
39	0x3e23345e	0.15937945
40	0xbd4a4a5e	-0.04938733
41	0x3c7e0a10	0.015505329
42	0xbdb50069	-0.08837969
43	0x3dabfab6	0.08397429
44	0xbcdb3195	-0.026757041
45	0x3d99d185	0.07510666
46	0x3dce2f20	0.10067582
47	0x3d840bf8	0.06447595
48	0x3cedbd02	0.02902079
49	0x3cb6d7c2	0.022319678
50	0x3d54a055	0.051910717
51	0xbd3050f1	-0.04304594
52	0x3c518035	0.012786915
53	0x3d71bd28	0.059018284
54	0xbdd47ec5	-0.10375742
55	0xbcde1d6b	-0.027113637
56	0x3cd585c7	0.026064767
57	0x3dc5148e	0.09623061
58	0x3dd478ca	0.10374601
59	0x3dbe0135	0.09277574
60	0x3e02acd0	0.12761235
61	0x3e551f48	0.20812714
62	0x3e11d9bb	0.14243214
63	0x3e1dbb24	0.1540342
64	0x3d950b82	0.072775856
65	0xbd67d169	-0.056596193
66	0x3d7b60e4	0.0613717
67	0x3e6c22af	0.23060106
68	0x3e26c412	0.16285732
69	0x3e06814a	0.13135257
70	0xbd23429f	-0.039858457
71	0xbd931f8f	-0.07183754
72	0x3d4b3e99	0.049620245
73	0x3dc7b68b	0.09751614
74	0x3e14ed3d	0.14543624
75	0xbca677af	-0.020320741
76	0x3dbf2b9f	0.09334492
77	0x3dae41d5	0.0850865
78	0x3d705257	0.058672275
79	0x3da631f4	0.081149966
80	0x3c887e8d	0.016661907
81	0x3e4ab068	0.19793856
82	0xbcab3e72	-0.0209038
83	0xbb851288	-0.004061047
84	0x3e46da3a	0.19419184
85	0x3dac34cd	0.084085084
86	0xbdd518b4	-0.10405102
87	0xbdb073c1	-0.08615828
88	0xbd81b3a4	-0.06333092
89	0x3db7238e	0.089423284
90	0x3e201fbb	0.15637104
91	0x3e2d09f1	0.16898324
92	0x3e24b360	0.16084051
93	0x3dae25b8	0.08503288
94	0x3e265a25	0.16245325
95	0x3d2a52b9	0.041582797
96	0x3da3941a	0.079872325
97	0x3c8d50ba	0.017250407
98	0xbdaa3505	-0.08310894
99	0xbcffba92	-0.031216893
100	0x3d0fe3c2	0.035129316
101	0x3bf48357	0.007461946
102	0xbd71cde0	-0.05903423
103	0x3de454a8	0.111489594
104	0x3da5ebd4	0.08101621
105	0x3cd1d00b	0.025611898
106	0xbdb9e566	-0.090769574
107	0x3d949559	0.07255048
108	0xbcc77b2d	-0.024350727
109	0xbb84ea4f	-0.004056252
110	0xbd64a268	-0.055818945
111	0xbbe7fd1a	-0.0070797326
112	0x3d81f284	0.06345084
113	0x3e085fed	0.13317843
114	0xbcdc9737	-0.026927574
115	0x3e1ebe4d	0.15502281
116	0x3c0927db	0.008371319
117	0x3d9dcea2	0.07705428
118	0x3dabafcc	0.0838314
119	0xbcfa89dc	-0.030583315

l3.weight f4 [80, 120]
0	0x3de1d87f	0.110276215
1	0xbf2b1b31	-0.66838366
2	0x3ce5d882	0.02805734
3	0xbe8ca69f	-0.27470872
4	0xbe0d8ef8	-0.1382407
5	0xbe2ef81a	-0.1708683
6	0xbe8b084c	-0.27154768
7	0x3d2ec939	0.04267237
8	0x3e3147bd	0.17312522
9	0x3e1183aa	0.14210382
10	0xbf0c8e28	-0.54904413
11	0xbd7cdda8	-0.061734825
12	0xbf2e7a55	-0.68155414
13	0x3b3baa7f	0.002863556
14	0xbc47d03b	-0.012195642
15	0x3c4ea76e	0.012613161
16	0xbee282a2	-0.4424029
17	0x3e00e5eb	0.12587707
18	0xbc232fdb	-0.00996014
19	0x3dcd1cf0	0.10015285
20	0xbd5491f5	-0.051897008
21	0x3e0634c6	0.13106069
22	0xbd04d90a	-0.032433547
23	0xbdce1e4a	-0.10064371
24	0x3de0285c	0.10945198
25	0xbe4900fc	-0.19629282
26	0xbcfe1ed0	-0.031020552
27	0x3e18274f	0.14858745
28	0x3ddb7d10	0.10717213
29	0x3d4ab6b8	0.04949066
30	0xbde5b48c	-0.11216077
31	0xbc0e8e83	-0.00870097
32	0xbd800bd5	-0.06252257
33	0x3d9c3e15	0.07629029
34	0xbddc7a65	-0.107655324
35	0x3d1afed4	0.03784068
36	0xbdabb4e0	-0.083841085
37	0x3d4fd4a9	0.050739918
38	0x3e2d1eaf	0.16906236
39	0xbeb68f8d	-0.35656396
40	0xbc376eb5	-0.011195828
41	0x3cfe1b2d	0.031018818
42	0xbde78d59	-0.11306257
43	0xbe8caa59	-0.27473715
44	0xbd50f760	-0.051017165
45	0xbdd433ef	-0.10361468
46	0x3e18d09b	0.14923327
47	0x3e07342c	0.13203496
48	0xbdeb3896	-0.11485402
49	0xbd409bdd	-0.047023643
50	0x3e1f5318	0.15559042
51	0xbcfe3172	-0.031029437
52	0xbd523074	-0.05131574
53	0xbe34334f	-0.17597698
54	0x3c00d0eb	0.00786231
55	0x3dbd1b37	0.092337064
56	0xbeaf162d	-0.34196606
57	0xbd9d4c1e	-0.07680534
58	0x3d930556	0.07178752
59	0xbded7396	-0.11594312
60	0xbd20895a	-0.03919349
61	0x3c9a515c	0.018837623
62	0xbe50917b	-0.20367996
63	0x3def2af0	0.116781116
64	0xbded8fa6	-0.115996644
65	0xbc2c7cc6	-0.010527795
66	0x3d1b1611	0.03786284
67	0xbe88d049	-0.2672141
68	0xbf0830e7	-0.5319962
69	0x3b8042f4	0.0039142314
70	0xbd33227f	-0.04373407
71	0xbe474c3f	-0.1946268
72	0xbe76ce50	-0.2410214
73	0xbe932d0d	-0.2874531
74	0xbdfe8833	-0.12428322
75	0x3d58efcc	0.052963063
76	0x3c79fed3	0.015258509
77	0x3df19fa1	0.11798025
78	0xbd0f228d	-0.03494506
79	0x3e0082dd	0.1254992
80	0xbd07d0f0	-0.033158243
81	0xbee8e56c	-0.45487535
82	0xbe881e7c	-0.26585758
83	0x3de557b6	0.1119837
84	0x3cc08348	0.0235001
85	0x3c7d3dbc	0.015456613
86	0xbcbaa63f	-0.02278435
87	0xbdb656dc	-0.08903286
88	0x3db7482c	0.089493126
89	0xbef61fc3	-0.48071107
90	0xbe9270c7	-0.28601667
91	0xbaac64f1	-0.0013152641
92	0xbe84051d	-0.2578515
93	0xbe4cbd1f	-0.19994019
94	0x3e19424b	0.14966695
95	0x3a21f2eb	0.000617786
96	0x3e1a9bd8	0.15098512
97	0xbef52dce	-0.4788651
98	0xbe7acd50	-0.24492383
99	0x3d5a0767	0.053229716
100	0x3d9fe987	0.07808214
101	0xbd9a8404	-0.07544711
102	0xbe391a3c	-0.18076414
103	0x3da7ee25	0.08199719
104	0x3df4752e	0.11936413
105	0xbe491c91	-0.19639803
106	0x3d6df261	0.05809248
107	0xbeddad8f	-0.43296477
108	0xbf019902	-0.50624096
109	0xbbfe61e3	-0.007763134
110	0x3c26cb80	0.010180354
111	0x3cb45d40	0.022017121
112	0x3dcda163	0.10040548
113	0xbd8e5196	-0.06949155
114	0x3d9e4677	0.07728284
115	0xbf004e05	-0.5011905
116	0xbded5657	-0.11588734
117	0xbdb18292	-0.086674824
118	0x3e083030	0.13299632
119	0xbe21de5e	-0.15807483
120	0xbee32169	-0.44361427
121	0x3d2108f9	0.039315198
122	0xbeed419b	-0.46339116
123	0xb9b6f19e	-0.00034893764
124	0xbefe1ba6	-0.4963047
125	0xbe7ffc9c	-0.24998707
126	0x3db49c08	0.08818823
127	0xbde65f49	-0.11248643
128	0xbd0b5337	-0.034014907
129	0xbe9c30ce	-0.30505985
130	0xbec4fcf8	-0.3847425
131	0xbe00d7fa	-0.12582389
132	0xbe6a09fe	-0.22855374
133	0x3dbb7fae	0.09155212
134	0xbea0a1bb	-0.3137339
135	0x3de44d6e	0.11147581
136	0x3d03e9a8	0.032205254
137	0xbe19ee89	-0.150324
138	0x3da952d6	0.08267753
139	0xbef20e6b	-0.47276625
140	0xbcb44c94	-0.022009172
141	0xbed8252f	-0.4221587
142	0xbd9d13c9	-0.07669789
143	0x3cc9c711	0.024631055
144	0xbe10256c	-0.14076775
145	0x3ce9ad91	0.028525146
146	0xbdacd806	-0.08439641
147	0xbc914afa	-0.017735947
148	0x3dfef72a	0.124494866
149	0xbd014dc4	-0.031568304
150	0xbe9dc531	-0.30814508
151	0x3cbdc543	0.02316535
152	0xbe4797d8	-0.19491518
153	0xbdbb667a	-0.09150405
154	0xbf3eb696	-0.74497354
155	0xbe579cc4	-0.21055895
156	0xbd001e81	-0.03127909
157	0xbe5bc721	-0.2146268
158	0xbe750195	-0.23926385
159	0x3e165c38	0.14683616
160	0x3cf8d028	0.030372694
161	0x3de51faa	0.1118768
162	0xbf81aa2c	-1.0130057
163	0xbd528600	-0.051397324
164	0xbf1d4d28	-0.61445856
165	0x3d58eacb	0.05295829
166	0xbe0a7898	-0.13522565
167	0xbc7ceafd	-0.015436885
168	0xbe85263b	-0.2600573
169	0xbd4bf547	-0.04979446
170	0x3d0c15e7	0.034200575
171	0xbe4b520e	-0.1985552
172	0xbdc6b67a	-0.097027734
173	0xbe621539	-0.22078408
174	0xbd4ca53a	-0.04996226
175	0xbecc221a	-0.39869767
176	0x3e161868	0.14657748
177	0xbd61d81e	-0.055137746
178	0xbd9f92b5	-0.07791654
179	0xbd9d8694	-0.07691684
180	0xbd99bf12	-0.07507147
181	0xbe35db0d	-0.17759342
182	0x3df2d24c	0.11856517
183	0x3da6c25e	0.08142541
184	0xbe22b4a2	-0.15889218
185	0x3d7cccc6	0.061718725
186	0xbda2940e	-0.079383954
187	0x3e0e4ba2	0.13896039
188	0x3e18983f	0.14901827
189	0xbe0ed0ca	-0.13946834
190	0x3c1b87db	0.00949284
191	0xbd070e7d	-0.0329728
192	0xbeeb21f9	-0.45924357
193	0xbe26c4ad	-0.16285963
194	0x3e2eafe5	0.17059286
195	0xbd264a38	-0.040598124
196	0x3d1a3cf2	0.03765578
197	0x3c8f561c	0.017497115
198	0xbe4900fa	-0.19629279
199	0x3c780b29	0.01513938
200	0x3d756bb8	0.05991718
201	0x3e176369	0.14784016
202	0x3d1546a7	0.036444332
203	0xbeacf8e5	-0.3378364
204	0xbb3445e9	-0.002750749
205	0x3dc9b9d3	0.09849896
206	0x3d4f171e	0.050559156
207	0xbd991348	-0.07474381
208	0xbd1f7dce	-0.038938336
209	0xbd57a853	-0.05265076
210	0x3df43a88	0.119252264
211	0x3c8f5d02	0.017500404
212	0x3d199893	0.03749902
213	0x3e0cd898	0.13754499
214	0xbd9a196c	-0.0752438
215	0xbe35a856	-0.17739996
216	0xbe2745bd	-0.16335197
217	0xbd9a689d	-0.07539485
218	0xbdbc11da	-0.091830924
219	0xbe29ca68	-0.16581118
220	0xbe88587f	-0.26630017
221	0xbe9dfd79	-0.30857447
222	0xbf00141b	-0.5003068
223	0xbe12e9d0	-0.14347005
224	0x3c1b341b	0.009472872
225	0xbdb3d934	-0.087816626
226	0xbf03c3d5	-0.5147069
227	0x3cf88fd2	0.030342016
228	0xbc9e4fd8	-0.019325182
229	0x3d0a7aa5	0.03380837
230	0xbec6b099	-0.38806608
231	0xbf52d877	-0.8236155
232	0xbe5fbc22	-0.2184911
233	0xbf333c03	-0.70013446
234	0xbf4b2dd3	-0.793668
235	0x3d498268	0.04919663
236	0xbc99344b	-0.018701693
237	0x3e073bb5	0.1320637
238	0xbe90822d	-0.28224316
239	0x3e5a051f	0.21291016
240	0xbdaccda5	-0.08437661
241	0x3d9ff9a1	0.07811285
242	0xbd08f1f1	-0.03343386
243	0xbe234daf	-0.15947603
244	0x3d050a2d	0.032480408
245	0xbf162014	-0.586427
246	0x3e0d31b1	0.13788487
247	0x3d11f3d0	0.03563291
248	0xbd5aa43e	-0.05337929
249	0xbe9d8d6e	-0.30771965
250	0x3d79e0a4	0.06100525
251	0x3dd5685b	0.10420295
252	0x3de3b639	0.111187406
253	0xbf2a91d9	-0.66628796
254	0xbd460e84	-0.048353687
255	0x3d5d95df	0.054098006

l3.bias f4 [80]
0	0x3d9e3420	0.07724786
1	0x3c91d71c	0.017802767
2	0xbd9d649f	-0.076852076
3	0xbd4cada8	-0.0499703
4	0x3ccf9227	0.025338246
5	0xbd797441	-0.060901884
6	0x3db9b83c	0.09068343
7	0x3dd00b47	0.10158401
8	0xbc03fb46	-0.008055514
9	0x3d16e565	0.03683986
10	0xbd62ab93	-0.055339407
11	0xbd548352	-0.05188305
12	0xbd732bde	-0.059368007
13	0x3cfa9ad7	0.030591412
14	0xbd627959	-0.055291507
15	0xbd246dbb	-0.04014371
16	0xbc2c4e2c	-0.0105166845
17	0x3d9871ec	0.07443604
18	0xbd4d5070	-0.05012554
19	0xbd8af02c	-0.067840904
20	0xbd9e207e	-0.07721041
21	0xbd823a8e	-0.06358825
22	0xbce39346	-0.027780186
23	0x3b57b0ea	0.0032911845
24	0x3d47be4a	0.04876546
25	0x3b125642	0.0022329246
26	0xbd070295	-0.032961447
27	0x3d4284f2	0.047490068
28	0xbcee31ec	-0.029076539
29	0x3ca8a184	0.02058483
30	0x3dab472d	0.08363185
31	0xbdfbd95d	-0.12297318
32	0xba84afe0	-0.0010123216
33	0x3c16b89d	0.009199289
34	0xbde0f4c2	-0.10984184
35	0x3cfafe1a	0.030638743
36	0x3c751526	0.014958655
37	0xbc8737cc	-0.016506098
38	0xbcfe67be	-0.031055328
39	0xbd08e103	-0.033417713
40	0xbd6b31d8	-0.05742058
41	0xbc81ad50	-0.015829712
42	0x3b5463c0	0.0032408088
43	0xbacd4f1e	-0.0015663838
44	0xbd5bc5f3	-0.053655576
45	0xbdf2d1e1	-0.118564375
46	0x3bda8e0c	0.0066697653
47	0xbd3d60fa	-0.046235062
48	0xbd7427ac	-0.059608147
49	0xbd9dfd4a	-0.07714327
50	0xbd3955f8	-0.045248
51	0xbca061b3	-0.019577837
52	0xbc37b0d8	-0.011211596
53	0xbc62c256	-0.013840279
54	0xbd81a91a	-0.06331082
55	0x3d68af00	0.056807518
56	0xbc090062	-0.008361908
57	0x3da4791d	0.08030913
58	0x3dac4bde	0.08412908
59	0xbd754567	-0.05988064
60	0x3ce211c6	0.027596366
61	0xbdbfc56c	-0.09363827
62	0xbcf84b3a	-0.030309308
63	0x3d91ac4b	0.071129404
64	0xbd4ecfa7	-0.050491
65	0x3cac4b7e	0.021032091
66	0x3ca69d62	0.020338718
67	0xbdbf1d00	-0.09331703
68	0xbe0d04c3	-0.13771348
69	0x3becfd8f	0.007232375
70	0x3d22edad	0.039777447
71	0x3d7624f2	0.060093828
72	0xbd3f91da	-0.046769954
73	0xbd39389f	-0.045220014
74	0x3d2b5f2c	0.04183881
75	0xbdb89313	-0.09012427
76	0xbdbb3167	-0.09140282
77	0xbdf10d7e	-0.117701516
78	0xbdcf6c9b	-0.10128137
79	0x3d58437b	0.05279873
